{"class_name": "Graph", "config": {"nodes": {"LSTM_cell": {"class_name": "LSTM", "config": {"forget_bias_init": "one", "init": "glorot_uniform", "go_backwards": false, "activation": "tanh", "inner_activation": "hard_sigmoid", "stateful": false, "output_dim": 100, "unroll": false, "input_length": null, "b_regularizer": null, "name": "LSTM_cell", "consume_less": "cpu", "trainable": true, "dropout_U": 0.0, "input_dim": 100, "inner_init": "orthogonal", "U_regularizer": null, "dropout_W": 0.0, "W_regularizer": null, "return_sequences": true}}, "gru_forward": {"class_name": "GRU", "config": {"init": "glorot_uniform", "go_backwards": false, "activation": "tanh", "inner_activation": "hard_sigmoid", "stateful": false, "output_dim": 40, "unroll": false, "input_length": null, "b_regularizer": null, "name": "gru_forward", "consume_less": "cpu", "trainable": true, "dropout_U": 0.0, "input_dim": 100, "inner_init": "orthogonal", "U_regularizer": null, "dropout_W": 0.0, "W_regularizer": null, "return_sequences": false}}, "GRU_outputs": {"class_name": "Dropout", "config": {"name": "GRU_outputs", "trainable": true, "p": 0.5}}, "full_con": {"class_name": "Dense", "config": {"b_constraint": null, "activity_regularizer": null, "W_constraint": null, "bias": true, "activation": "linear", "output_dim": 2, "b_regularizer": {"name": "WeightRegularizer", "l2": 0.009999999776482582, "l1": 0.0}, "name": "full_con", "trainable": true, "input_dim": null, "init": "glorot_uniform", "W_regularizer": {"name": "WeightRegularizer", "l2": 0.009999999776482582, "l1": 0.0}}}, "embedding": {"class_name": "Embedding", "config": {"batch_input_shape": [null, 31], "activity_regularizer": null, "W_constraint": null, "input_dtype": "int32", "output_dim": 100, "dropout": 0.0, "mask_zero": false, "name": "embedding", "trainable": true, "input_dim": 21162, "init": "uniform", "input_length": 31, "W_regularizer": null}}, "prob": {"class_name": "Activation", "config": {"name": "pred", "trainable": true, "activation": "softmax"}}, "gru_backward": {"class_name": "GRU", "config": {"init": "glorot_uniform", "go_backwards": true, "activation": "tanh", "inner_activation": "hard_sigmoid", "stateful": false, "output_dim": 40, "unroll": false, "input_length": null, "b_regularizer": null, "name": "gru_backward", "consume_less": "cpu", "trainable": true, "dropout_U": 0.0, "input_dim": 100, "inner_init": "orthogonal", "U_regularizer": null, "dropout_W": 0.0, "W_regularizer": null, "return_sequences": false}}}, "input_config": [{"dtype": "int32", "name": "input", "input_shape": [31]}], "output_config": [{"name": "pred", "dot_axes": -1, "inputs": [], "merge_mode": "concat", "concat_axis": -1, "input": "prob"}], "node_config": [{"name": "embedding", "dot_axes": -1, "inputs": [], "create_output": false, "concat_axis": -1, "merge_mode": "concat", "input": "input"}, {"name": "LSTM_cell", "dot_axes": -1, "inputs": [], "create_output": false, "concat_axis": -1, "merge_mode": "concat", "input": "embedding"}, {"name": "gru_forward", "dot_axes": -1, "inputs": [], "create_output": false, "concat_axis": -1, "merge_mode": "concat", "input": "LSTM_cell"}, {"name": "gru_backward", "dot_axes": -1, "inputs": [], "create_output": false, "concat_axis": -1, "merge_mode": "concat", "input": "LSTM_cell"}, {"name": "GRU_outputs", "dot_axes": -1, "inputs": ["gru_forward", "gru_backward"], "create_output": false, "concat_axis": -1, "merge_mode": "concat", "input": null}, {"name": "full_con", "dot_axes": -1, "inputs": [], "create_output": false, "concat_axis": -1, "merge_mode": "concat", "input": "GRU_outputs"}, {"name": "prob", "dot_axes": -1, "inputs": [], "create_output": false, "concat_axis": -1, "merge_mode": "concat", "input": "full_con"}]}}